==========================================================================================
Layer (type:depth-idx)                   Output Shape              Param #
==========================================================================================
Net                                      --                        --
├─Conv2d: 1-1                            [32, 12, 32, 32]          912
├─InstanceNorm2d: 1-2                    [32, 12, 32, 32]          --
├─MaxPool2d: 1-3                         [32, 12, 16, 16]          --
├─Conv2d: 1-4                            [32, 32, 16, 16]          9,632
├─BatchNorm2d: 1-5                       [32, 32, 16, 16]          64
├─MaxPool2d: 1-6                         [32, 32, 8, 8]            --
├─Conv2d: 1-7                            [32, 64, 8, 8]            51,264
├─MaxPool2d: 1-8                         [32, 64, 4, 4]            --
├─Linear: 1-9                            [32, 256]                 262,400
├─BatchNorm1d: 1-10                      [32, 256]                 512
├─Linear: 1-11                           [32, 128]                 32,896
├─Linear: 1-12                           [32, 43]                  5,547
==========================================================================================
Total params: 363,227
Trainable params: 363,227
Non-trainable params: 0
Total mult-adds (M): 223.42
==========================================================================================
Input size (MB): 0.39
Forward/backward pass size (MB): 8.56
Params size (MB): 1.45
Estimated Total Size (MB): 10.41
==========================================================================================
